…
;sparse_categorical_crossentropy&amp;#39;&lt;/span&gt;, metrics&lt;span style=&#34;color:#f92672&#34;&gt;=&lt;/span&gt;[&lt;span style=&#34;color:#e6db74&#34;&gt;&amp;#39;accuracy&amp;#39;&lt;/span&gt;])
model&lt;span style=&#34;color:#f92672&#34;&gt;.&lt;/span&gt;summary()
&lt;/code&gt;&lt;/pre&gt;&lt;/div&gt;&lt;pre&gt;&lt;code&gt;Model: &amp;quot;sequential&amp;quot;
_________________________________________________________________
Layer (type)                 Output Shape              Param #   
=================================================================
embedding (Embedding)        (None, 25, 100)           33264000  
_________________________________________________________________
lstm (LSTM)                  (None, 25, 100)           80400     
_________________________________________________________________
dropout (Dropout)            (None, 25, 100)           0         
_________________________________________________________________
lstm_1 (LSTM)                (None, 100)               80400     
_________________________________________________________________
dense (Dense)                (None, 332640)            33596640  
=================================================================
Total params: 67,021,440
Trainable params: 67,021,440
Non-trainable params: 0
_________________________________________________________________
&lt;/code&gt;&lt;/pre&gt;
&lt;p&gt;위 소스코드를 통해서 얻고자 하는 결과물은 주어진 입력에 대해 332,640개의 단어 중 어떤 단어를 선택해야 하는지 고르게 하는 기능을 하게 만듭니다.&lt;/p&gt;
&lt;p&gt;이제 학습을 시킵니다. 그런데, 이번에 학습시키는 방법은 기존과 조금 다르니 주의깊게 소스코드를 확인하시기를 바랍니다.&lt;/p&gt;
…
              loss&lt;span style=&#34;color:#f92672&#34;&gt;=&lt;/span&gt;&lt;span style=&#34;color:#e6db74&#34;&gt;&amp;#39;sparse_categorical_crossentropy&amp;#39;&lt;/span&gt;, 
              metrics&lt;span style=&#34;color:#f92672&#34;&gt;=&lt;/span&gt;[&lt;span style=&#34;color:#e6db74&#34;&gt;&amp;#39;accuracy&amp;#39;&lt;/span&gt;])

model&lt;span style=&#34;color:#f92672&#34;&gt;.&lt;/span&gt;summary()
&lt;/code&gt;&lt;/pre&gt;&lt;/div&gt;&lt;pre&gt;&lt;code&gt;Model: &amp;quot;sequential_1&amp;quot;
_________________________________________________________________
Layer (type)                 Output Shape              Param #   
=================================================================
conv2d_4 (Conv2D)            (None, 28, 28, 32)        320       
_________________________________________________________________
conv2d_5 (Conv2D)            (None, 28, 28, 64)        18496     
_________________________________________________________________
max_pooling2d_2 (MaxPooling2 (None, 14, 14, 64)        0         
_________________________________________________________________
dropout_4 (Dropout)          (None, 14, 14, 64)        0         
_________________________________________________________________
conv2d_6 (Conv2D)            (None, 14, 14, 128)       73856     
_________________________________________________________________
conv2d_7 (Conv2D)            (None, 12, 12, 256)       295168    
_________________________________________________________________
max_pooling2d_3 (MaxPooling2 (None, 6, 6, 256)         0         
_________________________________________________________________
dropout_5 (Dropout)          (None, 6, 6, 256)         0         
_________________________________________________________________
flatten_1 (Flatten)          (None, 9216)              0         
_________________________________________________________________
dense_3 (Dense)              (None, 512)               4719104   
_________________________________________________________________
dropout_6 (Dropout)          (None, 512)               0         
_________________________________________________________________
dense_4 (Dense)              (None, 256)               131328    
_________________________________________________________________
dropout_7 (Dropout)          (None, 256)               0         
_________________________________________________________________
dense_5 (Dense)              (None, 10)                2570      
=================================================================
Total params: 5,240,842
Trainable params: 5,240,842
Non-trainable params: 0
_________________________________________________________________
&lt;/code&gt;&lt;/pre&gt;
&lt;p&gt;&lt;code&gt;VGGNet&lt;/code&gt;은 여러 개의 구조로 실험했는데 그 중 19개의 레이어가 겹쳐진 &lt;code&gt;VGG-19&lt;/code&gt;가 제일 깊은 구조입니다. &lt;code&gt;VGG-19&lt;/code&gt;는 특징 추출기의 초반에 컨볼루션 레이어를 2개 겹친 뒤 풀링 레이어 1개를 사용하는 패턴을 2차례, 그 후 컨볼루션 레이어를 4개 겹친 뒤 풀링 레이어 1개를 사용하는 패턴을 3차례 반복합니다.&lt;/p&gt;
…
              loss&lt;span style=&#34;color:#f92672&#34;&gt;=&lt;/span&gt;&lt;span style=&#34;color:#e6db74&#34;&gt;&amp;#39;sparse_categorical_crossentropy&amp;#39;&lt;/span&gt;, 
              metrics&lt;span style=&#34;color:#f92672&#34;&gt;=&lt;/span&gt;[&lt;span style=&#34;color:#e6db74&#34;&gt;&amp;#39;accuracy&amp;#39;&lt;/span&gt;])

model&lt;span style=&#34;color:#f92672&#34;&gt;.&lt;/span&gt;summary()
&lt;/code&gt;&lt;/pre&gt;&lt;/div&gt;&lt;pre&gt;&lt;code&gt;Model: &amp;quot;sequential&amp;quot;
_________________________________________________________________
Layer (type)                 Output Shape              Param #   
=================================================================
conv2d (Conv2D)              (None, 26, 26, 16)        160       
_________________________________________________________________
conv2d_1 (Conv2D)            (None, 24, 24, 32)        4640      
_________________________________________________________________
conv2d_2 (Conv2D)            (None, 22, 22, 64)        18496     
_________________________________________________________________
flatten (Flatten)            (None, 30976)             0         
_________________________________________________________________
dense (Dense)                (None, 128)               3965056   
_________________________________________________________________
dense_1 (Dense)              (None, 10)                1290      
=================================================================
Total params: 3,989,642
Trainable params: 3,989,642
Non-trainable params: 0
_________________________________________________________________
&lt;/code&gt;&lt;/pre&gt;
&lt;p&gt;&lt;code&gt;Conv2D&lt;/code&gt;의 인수에 대해 정리하도록 합니다.&lt;/p&gt;
&lt;ul&gt;
&lt;li&gt;&lt;code&gt;kernel_size&lt;/code&gt;: 필터 행렬의 크기를 말하며, 수용 영역(receptive filed)이라고 불리워집니다. 앞의 숫자는 높이, 뒤의 숫자는 너비이고, 숫자를 하나만 쓸 경우 높이와 너비를 동일한 값으로 사용한다는 뜻입니다.&lt;sup id=&#34;fnref:1&#34;&gt;&lt;a href=&#34;#fn:1&#34; class=&#34;footnote-ref&#34; role=&#34;doc-noteref&#34;&gt;1&lt;/a&gt;&lt;/sup&gt;&lt;/li&gt;
…
              loss&lt;span style=&#34;color:#f92672&#34;&gt;=&lt;/span&gt;&lt;span style=&#34;color:#e6db74&#34;&gt;&amp;#39;sparse_categorical_crossentropy&amp;#39;&lt;/span&gt;, 
              metrics&lt;span style=&#34;color:#f92672&#34;&gt;=&lt;/span&gt;[&lt;span style=&#34;color:#e6db74&#34;&gt;&amp;#39;accuracy&amp;#39;&lt;/span&gt;])

model&lt;span style=&#34;color:#f92672&#34;&gt;.&lt;/span&gt;summary()
&lt;/code&gt;&lt;/pre&gt;&lt;/div&gt;&lt;pre&gt;&lt;code&gt;Model: &amp;quot;sequential_3&amp;quot;
_________________________________________________________________
Layer (type)                 Output Shape              Param #   
=================================================================
conv2d_9 (Conv2D)            (None, 26, 26, 32)        320       
_________________________________________________________________
max_pooling2d_4 (MaxPooling2 (None, 13, 13, 32)        0         
_________________________________________________________________
conv2d_10 (Conv2D)           (None, 11, 11, 64)        18496     
_________________________________________________________________
max_pooling2d_5 (MaxPooling2 (None, 5, 5, 64)          0         
_________________________________________________________________
conv2d_11 (Conv2D)           (None, 3, 3, 128)         73856     
_________________________________________________________________
flatten_3 (Flatten)          (None, 1152)              0         
_________________________________________________________________
dense_6 (Dense)              (None, 128)               147584    
_________________________________________________________________
dropout_2 (Dropout)          (None, 128)               0         
_________________________________________________________________
dense_7 (Dense)              (None, 10)                1290      
=================================================================
Total params: 241,546
Trainable params: 241,546
Non-trainable params: 0
_________________________________________________________________
&lt;/code&gt;&lt;/pre&gt;
&lt;p&gt;이번에 추가된 인수는 &lt;code&gt;MaxPool2D(strides=(2,2)&lt;/code&gt;)와 &lt;code&gt;Dropout(rate=0.3)&lt;/code&gt;입니다.&lt;/p&gt;
&lt;ul&gt;
&lt;li&gt;strides: 필터가 계산 과정에서 한 스텝마다 이동하는 크기입니다. 기본값은 (1,1)이고, (2,2) 등으로 설정할 경우 한 칸씩 건너뛰면서 계산하게 되니다. strides=1일 때와 2일 때의 결과 이미지의 크기에 영향을 줍니다.&lt;/li&gt;
…
