…
model&lt;span style=&#34;color:#f92672&#34;&gt;.&lt;/span&gt;compile(optimizer&lt;span style=&#34;color:#f92672&#34;&gt;=&lt;/span&gt;tf&lt;span style=&#34;color:#f92672&#34;&gt;.&lt;/span&gt;optimizers&lt;span style=&#34;color:#f92672&#34;&gt;.&lt;/span&gt;Adam(), loss&lt;span style=&#34;color:#f92672&#34;&gt;=&lt;/span&gt;&lt;span style=&#34;color:#e6db74&#34;&gt;&amp;#39;mse&amp;#39;&lt;/span&gt;)
model&lt;span style=&#34;color:#f92672&#34;&gt;.&lt;/span&gt;summary()
&lt;/code&gt;&lt;/pre&gt;&lt;/div&gt;&lt;pre&gt;&lt;code&gt;Model: &amp;quot;sequential_2&amp;quot;
_________________________________________________________________
Layer (type)                 Output Shape              Param #   
=================================================================
conv2d (Conv2D)              (None, 14, 14, 32)        160       
_________________________________________________________________
conv2d_1 (Conv2D)            (None, 7, 7, 64)          8256      
_________________________________________________________________
flatten (Flatten)            (None, 3136)              0         
_________________________________________________________________
dense_6 (Dense)              (None, 64)                200768    
_________________________________________________________________
dense_7 (Dense)              (None, 3136)              203840    
_________________________________________________________________
reshape (Reshape)            (None, 7, 7, 64)          0         
_________________________________________________________________
conv2d_transpose (Conv2DTran (None, 14, 14, 32)        8224      
_________________________________________________________________
conv2d_transpose_1 (Conv2DTr (None, 28, 28, 1)         129       
=================================================================
Total params: 421,377
Trainable params: 421,377
Non-trainable params: 0
_________________________________________________________________
&lt;/code&gt;&lt;/pre&gt;
&lt;p&gt;í•˜ë‚˜ì”© ì‚´í´ë³´ë„ë¡ í•©ë‹ˆë‹¤.&lt;/p&gt;
&lt;div class=&#34;highlight&#34;&gt;&lt;pre style=&#34;color:#f8f8f2;background-color:#272822;-moz-tab-size:
…
;sparse_categorical_crossentropy&amp;#39;&lt;/span&gt;, metrics&lt;span style=&#34;color:#f92672&#34;&gt;=&lt;/span&gt;[&lt;span style=&#34;color:#e6db74&#34;&gt;&amp;#39;accuracy&amp;#39;&lt;/span&gt;])
model&lt;span style=&#34;color:#f92672&#34;&gt;.&lt;/span&gt;summary()
&lt;/code&gt;&lt;/pre&gt;&lt;/div&gt;&lt;pre&gt;&lt;code&gt;Model: &amp;quot;sequential&amp;quot;
_________________________________________________________________
Layer (type)                 Output Shape              Param #   
=================================================================
embedding (Embedding)        (None, 25, 100)           33264000  
_________________________________________________________________
lstm (LSTM)                  (None, 25, 100)           80400     
_________________________________________________________________
dropout (Dropout)            (None, 25, 100)           0         
_________________________________________________________________
lstm_1 (LSTM)                (None, 100)               80400     
_________________________________________________________________
dense (Dense)                (None, 332640)            33596640  
=================================================================
Total params: 67,021,440
Trainable params: 67,021,440
Non-trainable params: 0
_________________________________________________________________
&lt;/code&gt;&lt;/pre&gt;
&lt;p&gt;ìœ„ ì†ŒìŠ¤ì½”ë“œë¥¼ í†µí•´ì„œ ì–»ê³ ì í•˜ëŠ” ê²°ê³¼ë¬¼ì€ ì£¼ì–´ì§„ ì…ë ¥ì— ëŒ€í•´ 332,640ê°œì˜ ë‹¨ì–´ ì¤‘ ì–´ë–¤ ë‹¨ì–´ë¥¼ ì„ íƒí•´ì•¼ í•˜ëŠ”ì§€ ê³ ë¥´ê²Œ í•˜ëŠ” ê¸°ëŠ¥ì„ í•˜ê²Œ ë§Œë“­ë‹ˆë‹¤.&lt;/p&gt;
…
              loss&lt;span style=&#34;color:#f92672&#34;&gt;=&lt;/span&gt;&lt;span style=&#34;color:#e6db74&#34;&gt;&amp;#39;sparse_categorical_crossentropy&amp;#39;&lt;/span&gt;, 
              metrics&lt;span style=&#34;color:#f92672&#34;&gt;=&lt;/span&gt;[&lt;span style=&#34;color:#e6db74&#34;&gt;&amp;#39;accuracy&amp;#39;&lt;/span&gt;])

model&lt;span style=&#34;color:#f92672&#34;&gt;.&lt;/span&gt;summary()
&lt;/code&gt;&lt;/pre&gt;&lt;/div&gt;&lt;pre&gt;&lt;code&gt;Model: &amp;quot;sequential_1&amp;quot;
_________________________________________________________________
Layer (type)                 Output Shape              Param #   
=================================================================
conv2d_4 (Conv2D)            (None, 28, 28, 32)        320       
_________________________________________________________________
conv2d_5 (Conv2D)            (None, 28, 28, 64)        18496     
_________________________________________________________________
max_pooling2d_2 (MaxPooling2 (None, 14, 14, 64)        0         
_________________________________________________________________
dropout_4 (Dropout)          (None, 14, 14, 64)        0         
_________________________________________________________________
conv2d_6 (Conv2D)            (None, 14, 14, 128)       73856     
_________________________________________________________________
conv2d_7 (Conv2D)            (None, 12, 12, 256)       295168    
_________________________________________________________________
max_pooling2d_3 (MaxPooling2 (None, 6, 6, 256)         0         
_________________________________________________________________
dropout_5 (Dropout)          (None, 6, 6, 256)         0         
_________________________________________________________________
flatten_1 (Flatten)          (None, 9216)              0         
_________________________________________________________________
dense_3 (Dense)              (None, 512)               4719104   
_________________________________________________________________
dropout_6 (Dropout)          (None, 512)               0         
_________________________________________________________________
dense_4 (Dense)              (None, 256)               131328    
_________________________________________________________________
dropout_7 (Dropout)          (None, 256)               0         
_________________________________________________________________
dense_5 (Dense)              (None, 10)                2570      
=================================================================
Total params: 5,240,842
Trainable params: 5,240,842
Non-trainable params: 0
_________________________________________________________________
&lt;/code&gt;&lt;/pre&gt;
&lt;p&gt;&lt;code&gt;VGGNet&lt;/code&gt;ì€ ì—¬ëŸ¬ ê°œì˜ êµ¬ì¡°ë¡œ ì‹¤í—˜í–ˆëŠ”ë° ê·¸ ì¤‘ 19ê°œì˜ ë ˆì´ì–´ê°€ ê²¹ì³ì§„ &lt;code&gt;VGG-19&lt;/code&gt;ê°€ ì œì¼ 
…
              loss&lt;span style=&#34;color:#f92672&#34;&gt;=&lt;/span&gt;&lt;span style=&#34;color:#e6db74&#34;&gt;&amp;#39;sparse_categorical_crossentropy&amp;#39;&lt;/span&gt;, 
              metrics&lt;span style=&#34;color:#f92672&#34;&gt;=&lt;/span&gt;[&lt;span style=&#34;color:#e6db74&#34;&gt;&amp;#39;accuracy&amp;#39;&lt;/span&gt;])

model&lt;span style=&#34;color:#f92672&#34;&gt;.&lt;/span&gt;summary()
&lt;/code&gt;&lt;/pre&gt;&lt;/div&gt;&lt;pre&gt;&lt;code&gt;Model: &amp;quot;sequential&amp;quot;
_________________________________________________________________
Layer (type)                 Output Shape              Param #   
=================================================================
conv2d (Conv2D)              (None, 26, 26, 16)        160       
_________________________________________________________________
conv2d_1 (Conv2D)            (None, 24, 24, 32)        4640      
_________________________________________________________________
conv2d_2 (Conv2D)            (None, 22, 22, 64)        18496     
_________________________________________________________________
flatten (Flatten)            (None, 30976)             0         
_________________________________________________________________
dense (Dense)                (None, 128)               3965056   
_________________________________________________________________
dense_1 (Dense)              (None, 10)                1290      
=================================================================
Total params: 3,989,642
Trainable params: 3,989,642
Non-trainable params: 0
_________________________________________________________________
&lt;/code&gt;&lt;/pre&gt;
&lt;p&gt;&lt;code&gt;Conv2D&lt;/code&gt;ì˜ ì¸ìˆ˜ì— ëŒ€í•´ ì •ë¦¬í•˜ë„ë¡ í•©ë‹ˆë‹¤.&lt;/p&gt;
&lt;ul&gt;
&lt;li&gt;&lt;code&gt;kernel_size&lt;/code&gt;: í•„í„° 
…
              loss&lt;span style=&#34;color:#f92672&#34;&gt;=&lt;/span&gt;&lt;span style=&#34;color:#e6db74&#34;&gt;&amp;#39;sparse_categorical_crossentropy&amp;#39;&lt;/span&gt;, 
              metrics&lt;span style=&#34;color:#f92672&#34;&gt;=&lt;/span&gt;[&lt;span style=&#34;color:#e6db74&#34;&gt;&amp;#39;accuracy&amp;#39;&lt;/span&gt;])

model&lt;span style=&#34;color:#f92672&#34;&gt;.&lt;/span&gt;summary()
&lt;/code&gt;&lt;/pre&gt;&lt;/div&gt;&lt;pre&gt;&lt;code&gt;Model: &amp;quot;sequential_3&amp;quot;
_________________________________________________________________
Layer (type)                 Output Shape              Param #   
=================================================================
conv2d_9 (Conv2D)            (None, 26, 26, 32)        320       
_________________________________________________________________
max_pooling2d_4 (MaxPooling2 (None, 13, 13, 32)        0         
_________________________________________________________________
conv2d_10 (Conv2D)           (None, 11, 11, 64)        18496     
_________________________________________________________________
max_pooling2d_5 (MaxPooling2 (None, 5, 5, 64)          0         
_________________________________________________________________
conv2d_11 (Conv2D)           (None, 3, 3, 128)         73856     
_________________________________________________________________
flatten_3 (Flatten)          (None, 1152)              0         
_________________________________________________________________
dense_6 (Dense)              (None, 128)               147584    
_________________________________________________________________
dropout_2 (Dropout)          (None, 128)               0         
_________________________________________________________________
dense_7 (Dense)              (None, 10)                1290      
=================================================================
Total params: 241,546
Trainable params: 241,546
Non-trainable params: 0
_________________________________________________________________
&lt;/code&gt;&lt;/pre&gt;
&lt;p&gt;ì´ë²ˆì— ì¶”ê°€ëœ ì¸ìˆ˜ëŠ” &lt;code&gt;MaxPool2D(strides=(2,2)&lt;/code&gt;)ì™€ &lt;code&gt;Dropout(rate=0.3)&lt;/code&gt;ì…ë‹ˆë‹¤.&lt;/p&gt;
&lt;ul&gt;
&lt;li&gt;strides: í•„í„°ê°€ ê³„ì‚° ê³¼ì •ì—ì„œ í•œ ìŠ¤í…ë§ˆë‹¤ ì´ë™í•˜ëŠ” í¬ê¸°ì…ë‹ˆë‹¤. ê¸°ë³¸ê°’ì€ (1,1)ì´ê³ , (2,2) ë“±ìœ¼ë¡œ ì„¤ì •í•  ê²½ìš° í•œ ì¹¸ì”© ê±´ë„ˆë›°ë©´ì„œ ê³„ì‚°í•˜ê²Œ ë˜ë‹ˆë‹¤. strides=1ì¼ ë•Œì™€ 2ì¼ ë•Œì˜ ê²°ê³¼ ì´ë¯¸ì§€ì˜ í¬ê¸°ì— ì˜í–¥ì„ ì¤ë‹ˆë‹¤.&lt;/li&gt;
…
