…
model&lt;span style=&#34;color:#f92672&#34;&gt;.&lt;/span&gt;compile(optimizer&lt;span style=&#34;color:#f92672&#34;&gt;=&lt;/span&gt;tf&lt;span style=&#34;color:#f92672&#34;&gt;.&lt;/span&gt;optimizers&lt;span style=&#34;color:#f92672&#34;&gt;.&lt;/span&gt;Adam(), loss&lt;span style=&#34;color:#f92672&#34;&gt;=&lt;/span&gt;&lt;span style=&#34;color:#e6db74&#34;&gt;&amp;#39;mse&amp;#39;&lt;/span&gt;)
model&lt;span style=&#34;color:#f92672&#34;&gt;.&lt;/span&gt;summary()
&lt;/code&gt;&lt;/pre&gt;&lt;/div&gt;&lt;pre&gt;&lt;code&gt;Model: &amp;quot;sequential_2&amp;quot;
_________________________________________________________________
Layer (type)                 Output Shape              Param #   
=================================================================
conv2d (Conv2D)              (None, 14, 14, 32)        160       
_________________________________________________________________
conv2d_1 (Conv2D)            (None, 7, 7, 64)          8256      
_________________________________________________________________
flatten (Flatten)            (None, 3136)              0         
_________________________________________________________________
dense_6 (Dense)              (None, 64)                200768    
_________________________________________________________________
dense_7 (Dense)              (None, 3136)              203840    
_________________________________________________________________
reshape (Reshape)            (None, 7, 7, 64)          0         
_________________________________________________________________
conv2d_transpose (Conv2DTran (None, 14, 14, 32)        8224      
_________________________________________________________________
conv2d_transpose_1 (Conv2DTr (None, 28, 28, 1)         129       
=================================================================
Total params: 421,377
Trainable params: 421,377
Non-trainable params: 0
_________________________________________________________________
&lt;/code&gt;&lt;/pre&gt;
&lt;p&gt;í•˜ë‚˜ì”© ì‚´í´ë³´ë„ë¡ í•©ë‹ˆë‹¤.&lt;/p&gt;
&lt;div class=&#34;highlight&#34;&gt;&lt;pre style=&#34;color:#f8f8f2;background-color:#272822;-moz-tab-size:
…
